model.pth (torch, 14196 bytes, 5 tensors)

net.0.weight f4 [64, 12]
-0.075834826 0.2136248 -0.42956892 0.11124568 0.07467853 0.106978446 -0.019949283 0.23535523
-0.019593053 0.05752943 0.030489216 0.11805214 -0.34938195 -0.20126219 -0.42669433 0.14375114
-0.06807404 0.14195798 -0.12592287 -0.010614681 -0.32702136 -0.12817335 0.0057075513 0.42243317
0.040690236 0.0048129805 -0.7894633 -0.059582006 0.012509486 0.054834228 -0.1025137 -0.119467795
-0.010197694 0.39284468 0.15981457 -0.6197952 0.14692926 0.40225527 0.011966718 -0.021998527
-0.5206397 0.28590435 -0.18502048 -0.27244425 0.36479422 0.29750332 -0.29694512 0.055894844
-0.010264517 -0.017580042 -0.23610343 -0.042733632 0.1202663 0.86379635 -0.086299375 0.01088227
0.0208773 -0.019711958 -0.15008745 -0.12922883 0.010315262 0.022955986 0.32168302 0.11827161
0.41742912 0.5503675 -0.13282618 -0.26412863 0.04562885 -0.24031572 -0.21391007 -0.11535078
-0.0700692 -0.46940717 -0.73270303 -0.15763746 0.19877027 -0.21446899 0.1217621 -0.039178893
-0.029219927 -0.04628927 0.02789076 -0.015231268 -0.060405567 0.14205904 -0.18801796 -0.19019106
-0.28774476 0.3329494 0.3284422 0.04111169 0.03200692 0.06677802 -0.3502677 -0.18280138
-0.011694849 0.09050316 -0.4336732 0.15341485 0.09123388 0.072807655 -0.017438818 -0.109747946
-0.050845142 -0.07118847 -0.38035497 -0.07286073 -0.0016013423 -0.00960352 -0.5422486 -0.14229372
0.02137157 -0.03611402 0.045743685 0.22354242 0.09896453 -0.042272344 -0.3160999 0.09183359
0.07596695 0.047646675 -0.4524764 -0.1536109 -0.16514654 -0.04855277 0.059952285 -0.033563185
0.07222975 0.14368023 0.25738424 0.002050121 -0.12917386 -0.029512413 0.08656244 -0.22693707
0.3532261 0.65381044 0.020858908 0.21019101 0.03469723 0.18319146 -0.021298531 0.2472539
-0.17208312 -0.04480104 0.4425983 -0.051783342 -0.1246226 -0.82572854 0.003723377 -0.20441976
0.13013749 -0.16505128 -0.019463567 -0.2649298 -0.23748733 0.015812445 -0.093556404 -0.10120516
-0.053778626 0.07598759 -0.024937913 0.12665544 0.11453264 0.021521743 0.0077430755 0.080334164
0.0055086417 0.05397881 0.48543063 -0.021226095 -0.27529928 0.13613322 -0.053013347 0.53430307
-0.13639142 0.27600655 -0.07969147 0.070526965 0.017957855 0.27445626 -0.15860982 0.1053484
-0.15390855 -0.08404072 0.00617657 0.13511261 -0.1615566 0.2916753 0.09532995 0.15208703
0.09971423 0.29488248 0.1989817 -0.14144845 -0.11198236 0.15407601 -0.068895765 0.5586611
0.15941815 -0.032559868 -0.18681745 -0.10717802 -0.002720696 0.24934539 -0.4206173 -0.19039698
0.20561153 0.15681326 0.36816293 0.59540224 0.33615586 0.06996437 -0.005687485 -0.38145354
0.17212158 0.015689299 -0.005006788 0.29704115 0.20874827 -0.036601134 -0.3551712 -0.04335879
0.023207178 -0.33581677 0.16197416 0.060336456 -0.14919524 -0.30706093 -0.11343873 -0.006934323
0.25003314 -0.008454892 0.12631 0.035262242 -0.14411423 0.34178936 -0.13511188 -0.0328294
0.05353663 0.06192234 -0.09174549 0.029695082 -0.8326688 -0.98220396 0.009671445 0.083606884
0.028645072 -0.36947766 0.23715027 -0.19036457 0.041014325 -0.07021888 -0.7763053 0.072279386
00000000: 4a4f 9bbd 76c0 5a3e 75f0 dbbe c6d4 e33d
00000010: 0ff1 983d 8417 db3d ae6c a3bc f600 713e
00000020: 9c81 a0bc fba3 6b3d 85c4 f93c 52c5 f13d
00000030: 31e2 b2be ad17 4ebe ae77 dabe 8033 133e
00000040: 676a 8bbd 6f5d 113e edf1 00be 33e9 2dbc
00000050: 586f a7be e03f 03be 6906 bb3b 2949 d83e
00000060: ceaa 263d 35b6 9d3b 441a 4abf 430c 74bd
00000070: 96f4 4c3c db99 603d b4f2 d1bd 88ab f4bd
00000080: 3b14 27bc f022 c93e 6ea6 233e e6aa 1ebf
00000090: a074 163e 67f4 cd3e 0e10 443c 4136 b4bc
000000a0: a548 05bf 0e62 923e 0276 3dbe d07d 8bbe
000000b0: 4fc6 ba3e 5b52 983e 3109 98be fef1 643d
000000c0: 812c 28bc 0504 90bc 19c5 71be 7609 2fbd
000000d0: 2e4e f63d c221 5d3f babd b0bd 8c4b 323c
000000e0: df06 ab3c f97a a1bc 86b0 19be 9054 04be
000000f0: 5801 293c 310e bc3c a3b3 a43e 6338 f23d
00000100: 45b9 d53e e2e4 0c3f 9603 08be de3b 87be
00000110: 51e5 3a3d 5315 76be 3e0b 5bbe 083d ecbd
00000120: 7180 8fbd 2356 f0be 6d92 3bbf b76b 21be
00000130: 6f8a 4b3e c29d 5bbe 685e f93d 0c7a 20bd
00000140: a15e efbc d199 3dbd 2a7b e43c 918c 79bc
00000150: d46b 77bd ed77 113e c887 40be 72c1 42be
00000160: 4853 93be 5878 aa3e 9329 a83e bb64 283d
00000170: b019 033d eac2 883d 4a56 b3be 4930 3bbe
00000180: c09b 3fbc b959 b93d 6a0a debe c818 1d3e
00000190: d4d8 ba3d 2e1c 953d dadb 8ebc 88c3 e0bd
000001a0: ff42 50bd 43cb 91bd e3bd c2be 0238 95bd
000001b0: 22e4 d1ba 1558 1dbc ced0 0abf 72b5 11be
000001c0: 6e13 af3c 4bec 13bd bb5d 3b3d 4ee8 643e
000001d0: eaad ca3d c425 2dbd d9d7 a1be 4013 bc3d
000001e0: 8f94 9b3d 2929 433d fdaa e7be 2d4c 1dbe
000001f0: 2d1c 29be 45df 46bd 8790 753d 8d79 09bd
00000200: 31ed 933d e920 133e dec7 833e 535b 063b
00000210: 2746 04be 04c4 f1bc a647 b13d 3162 68be
00000220: 0dda b43e 1f60 273f 4de0 aa3c 503c 573e
00000230: af1e 0e3d 8b96 3b3e 427a aebc 2030 7d3e
00000240: 8f36 30be 4c81 37bd 3f9c e23e c51a 54bd
00000250: 223a ffbd f262 53bf e603 743b 6a53 51be
00000260: c342 053e 3403 29be 0f72 9fbc e1a4 87be
00000270: e12f 73be 1a89 813c 809a bfbd a744 cfbd
00000280: fa46 5cbd 629f 9b3d 984a ccbc f7b1 013e
00000290: 1790 ea3d 5e4e b03c a0b9 fd3b 3d86 a43d
000002a0: d681 b43b e218 5d3d 5d8a f83e 59e2 adbc
000002b0: 07f4 8cbe 8266 0b3e 8624 59bd 16c8 083f
000002c0: 31aa 0bbe bb50 8d3e 4835 a3bd 7170 903d
000002d0: 5a1c 933c 8885 8c3e 9d6a 22be e7c0 d73d
000002e0: 349a 1dbe 8a1d acbd d364 ca3b f65a 0a3e
000002f0: 186f 25be 7756 953e 593c c33d b4bc 1b3e
00000300: f936 cc3d d6fa 963e dcc1 4b3e ddd7 10be
00000310: 0257 e5bd 1ac6 1d3e 3919 8dbd 6a04 0f3f
00000320: 833e 233e 7f5d 05bd 134d 3fbe 2680 dbbd
00000330: b44d 32bb 6654 7f3e 275b d7be 6df7 42be
00000340: d48b 523e a893 203e da7f bc3e 486c 183f
00000350: 9f1c ac3e 7b49 8f3d 155e babb e14d c3be
00000360: a440 303e d886 803c fb0f a4bb c715 983e
00000370: 1bc2 553e 12eb 15bd 00d9 b5be fd98 31bd
00000380: fb1c be3c 2df0 abbe 8edc 253e 5c23 773d
00000390: a3c6 18be 1737 9dbe 9152 e8bd 5139 e3bb
000003a0: 5804 803e 6386 0abc 6957 013e 246f 103d
000003b0: ae92 13be 04ff ae3e c55a 0abe 1f78 06bd
000003c0: 3a49 5b3d 48a2 7d3d 0fe5 bbbd 1a43 f33c
000003d0: c829 55bf b871 7bbf fb74 1e3c 163a ab3d
000003e0: 12a9 ea3c 2d2c bdbe 85d7 723e eeee 42be
000003f0: a3fe 273d ebce 8fbd f2bb 46bf 3707 943d

net.0.bias f4 [64]
-0.11641991 0.06562823 0.35333085 0.03301055 -0.87249404 -0.31579664 -0.3370494 0.16144228
0.37225392 0.088082746 -0.25478134 -0.7480332 0.10535466 -0.42346844 -0.66876763 -0.023231681
-0.03482795 -0.19837394 -0.10941381 -0.5343753 -0.2134945 -0.7156292 0.29369253 -0.20651127
-0.2709585 -0.10995242 -0.39736867 -0.1456977 -0.67160994 -0.23124504 -0.077614516 -0.25151616
-0.7844794 -0.09126279 0.57757705 -0.2982972 0.56958354 -0.005956234 -0.14414082 0.34549946
-0.38068205 0.11247255 -0.8805992 0.093245886 0.28037298 0.023936471 -0.5949607 0.38699043
-0.15817338 -0.14171125 -0.36581054 -0.40254143 -0.17437133 -0.029127387 -0.9023495 0.09731901
-0.16946323 0.2190716 0.30764815 -0.34989798 -0.73168087 -0.6054635 -0.29225448 -0.5237551
00000000: 906d eebd 1868 863d c8e7 b43e 1236 073d
00000010: c55b 5fbf 19b0 a1be bd91 acbe 2051 253e
00000020: 1198 be3e ba64 b43d b372 82be 1b7f 3fbf
00000030: 2fc4 d73d dbd0 d8be 5b34 2bbf 5e50 bebc
00000040: c1a7 0ebd 8a22 4bbe 5914 e0bd d2cc 08bf
00000050: 4d9e 5abe 7a33 37bf de5e 963e b177 53be
00000060: 13bb 8abe bc2e e1bd e873 cbbe c731 15be
00000070: a1ee 2bbf 80cb 6cbe 5cf4 9ebd bac6 80be
00000080: a4d3 48bf fce7 babd 17dc 133f 69ba 98be
00000090: 3ad0 113f 832c c3bb a799 13be 4ee5 b03e
000000a0: c2e8 c2be 0258 e63d f36e 61bf b3f7 be3d
000000b0: 0c8d 8f3e 6b16 c43c 584f 18bf 9c23 c63e
000000c0: 34f8 21be c11c 11be 854b bbbe e919 cebe
000000d0: 668e 32be 8f9c eebc 6000 67bf 304f c73d
000000e0: c587 2dbe 4e54 603e 0f84 9d3e d425 b3be
000000f0: 704f 3bbf a8ff 1abf 61a2 95be d014 06bf

net.2.weight f4 [32, 64]
-0.116278656 -0.40440583 -0.59485734 0.17127652 0.64638346 0.4697583 -0.39611658 0.18110049
-0.40503934 -0.38236675 -0.27845246 0.50474817 0.44171503 -0.04603649 -0.28520882 -0.19514935
-0.31231502 -0.27494085 0.29088175 -0.068869054 0.18066667 -0.27098003 -0.16907953 -0.03799984
0.0464679 -0.090651095 0.24223074 0.12755246 -0.53957057 0.17028193 0.494165 0.14497343
0.36335462 -0.40315235 -0.812644 0.21782841 -0.60666704 -0.30776933 -0.22916138 0.08013793
-0.010977446 0.01264794 0.44230065 -0.072141476 -0.33882582 -0.0004182454 0.4573592 -0.2478136
-0.15373285 -0.17385966 -0.1455041 -0.6491879 0.13019685 -0.18024082 -0.86630666 0.07521411
-0.3650569 -0.1881549 -0.118901506 0.3989324 0.36258528 -0.5746212 0.3485983 -0.15750064
0.02012902 0.02490169 -0.14671534 0.24746498 -0.056670915 -0.1420667 -0.14207545 0.14209619
-0.07535366 -0.120064974 -0.058699027 -0.19963722 -0.13875961 -0.16102919 -0.14503525 0.12338422
0.10201805 0.17667073 -0.060597073 0.053799123 -0.11452421 0.0700561 0.08163677 -0.10806704
-0.058240898 0.15043016 -0.27976584 -0.13467443 -0.09752427 0.09923451 -0.11667611 -0.015756104
-0.26990688 -0.20963004 -0.11681782 0.01600244 0.2395652 0.05996999 -0.061085742 0.15327822
0.011980181 0.0058971937 -0.007457616 -0.083911665 0.08416083 0.05741362 -0.05952698 0.18123886
-0.017024588 0.21499242 -0.18310301 -0.047448557 -0.20803972 -0.039253846 -0.05802164 0.00862108
-0.08747065 0.12905052 0.00013852847 0.10118164 0.054826435 0.08590844 -0.019489609 0.07502776
0.046421077 0.22822312 -0.09399581 0.32525286 -0.32417294 -0.11172249 -0.46170115 0.10235377
-0.098542914 -0.09717103 -0.081691764 -0.19138576 -0.33493784 0.10887574 -0.086517945 0.16139145
-0.031362645 0.15649855 0.15900674 -0.026452472 -0.27956006 -0.1876307 0.12301057 -0.048036557
0.1399086 0.12764467 0.012955797 -0.27567255 -0.3506636 0.06570554 -0.06647602 -0.10329987
-0.3628943 -0.3771944 -0.0041999607 0.06884404 0.063096695 0.13943557 0.14295612 0.18622343
0.09482307 0.26199272 -0.30725053 -0.005300056 0.23334514 0.18818735 -0.12875612 0.00673757
-0.061125178 0.089049794 0.16666718 -0.03814523 0.04585325 -0.069823176 -0.35315806 0.16709626
-0.07040145 0.26690292 0.23556912 -0.05926526 -0.14775862 -0.1768107 0.022048201 -0.14783573
0.030092338 -0.0911788 -0.11674103 -0.016161188 0.026567716 -0.1542765 -0.09513977 -0.0988921
-0.13662797 -0.04863865 -0.16174491 -0.08310668 -0.021866806 -0.18101054 0.008305745 -0.150058
0.0485444 -0.06115394 -0.14056425 -0.15503731 -0.18868557 -0.13595165 -0.027532652 -0.032061104
-0.093918264 -0.09545737 -0.14628923 -0.00096793426 0.027028846 -0.020497255 0.02209229 -0.068724364
-0.14687632 -0.12511405 -0.045224234 -0.007443267 -0.13098873 -0.05170745 -0.06681147 -0.15978648
0.018492242 -0.041646887 -0.06964591 0.027581 0.0052667796 -0.0037169843 -0.10005873 -0.11153877
0.021116782 -0.0048680645 -0.0931969 0.030634707 -0.11887911 -0.0699113 -0.14319223 -0.10743751
0.030416599 -0.101893514 -0.12318139 0.05131438 -0.19483745 -0.026329482 0.062078424 -0.17655866
00000000: 8123 eebd 480e cfbe 9248 18bf 1d63 2f3e
00000010: 6379 253f 2984 f03e cbcf cabe 6872 393e
00000020: 5161 cfbe 93c5 c3be 5291 8ebe 2d37 013f
00000030: 7928 e23e c290 3cbd e406 92be 3bd5 47be
00000040: c1e7 9fbe 0cc5 8cbe 74ee 943e 380b 8dbd
00000050: af00 393e e5bd 8abe 2f23 2dbe b8a5 1bbd
00000060: 2055 3e3d 48a7 b9bd 560b 783e 1d9d 023e
00000070: 4c21 0abf 635e 2e3e 3203 fd3e ea73 143e
00000080: 9e09 ba3e fc69 cebe 7009 50bf 690e 5f3e
00000090: 884e 1bbf f193 9dbe 48a9 6abe 5b1f a43d
000000a0: bfda 33bc 4e39 4f3c 3b75 e23e e9be 93bd
000000b0: 947a adbe f347 dbb9 fc2a ea3e d9c2 7dbe
000000c0: 256c 1dbe 4408 32be 07ff 14be 2e31 26bf
000000d0: 5352 053e 0d91 38be 46c6 5dbf db09 9a3d
000000e0: bde8 babe aeab 40be a282 f3bd de40 cc3e
000000f0: c7a4 b93e 601a 13bf 7a7b b23e d947 21be
00000100: 9de5 a43c a1fe cb3c 8c3c 16be 7667 7d3e
00000110: c31f 68bd ef79 11be 3a7c 11be aa81 113e
00000120: 0553 9abd a0e4 f5bd 646e 70bd b36d 4cbe
00000130: 0017 0ebe d6e4 24be 1f84 14be deb0 fc3d
00000140: d7ee d03d 2ce9 343e a334 78bd 785c 5c3d
00000150: ab8b eabd 9379 8f3d 2e31 a73d 4152 ddbd
00000160: 028e 6ebd 5d0a 1a3e 783d 8fbe 18e8 09be
00000170: ceba c7bd 763b cb3d e2f3 eebd f212 81bc
00000180: 3c31 8abe 42a9 56be 2e3e efbd 8d17 833c
00000190: 9450 753e 18a3 753d 0b35 7abd f7f4 1c3e
000001a0: 8548 443c 3f3d c13b 045f f4bb e1d9 abbd
000001b0: 835c ac3d 8b2a 6b3d 90d2 73bd ae96 393e
000001c0: 2677 8bbc f926 5c3e 5b7f 3bbe 6b59 42bd
000001d0: 5d08 55be a4c8 20bd 19a8 6dbd 6e3f 0d3c
000001e0: d023 b3bd d225 043e f441 1139 5238 cf3d
000001f0: af91 603d c4f0 af3d aca8 9fbc 27a8 993d
00000200: 0724 3e3d 52b3 693e e080 c0bd 8b87 a63e
00000210: fff9 a5be c3ce e4bd 1864 ecbe da9e d13d
00000220: ded0 c9bd 9b01 c7bd 034e a7bd a1fa 43be
00000230: f97c abbe 3efa de3d 5230 b1bd cd43 253e
00000240: 1e76 00bd 2841 203e aad2 223e dbb2 d8bc
00000250: 7f22 8fbe 4322 40be f7ec fb3d fbc1 44bd
00000260: 3344 0f3e 49b5 023e 8d44 543c f424 8dbe
00000270: 2e8a b3be a090 863d 9424 88bd e28e d3bd
00000280: 48cd b9be a01f c1be d39f 89bb 1bfe 8c3d
00000290: d738 813d 33c8 0e3e 1763 123e 5bb1 3e3e
000002a0: 9932 c23d e923 863e f14f 9dbe 18ac adbb
000002b0: 07f2 6e3e 2fb4 403e a5d8 03be d5c6 dc3b
000002c0: 655e 7abd bd5f b63d cdaa 2a3e 2c3e 1cbd
000002d0: 9ed0 3b3d 74ff 8ebd 22d1 b4be 481b 2b3e
000002e0: a32e 90bd 80a7 883e 0839 713e 21c0 72bd
000002f0: 094e 17be dd0d 35be 6e9e b43c 4062 17be
00000300: 3584 f63c f3bb babd ec15 efbd 7864 84bc
00000310: 8aa4 d93c a9fa 1dbe a4d8 c2bd f187 cabd
00000320: 34e8 0bbe 5239 47bd 75a0 25be d633 aabd
00000330: 0422 b3bc d45a 39be d214 083c cea8 19be
00000340: 7ed6 463d 8e7c 7abd 13f0 0fbe 1ac2 1ebe
00000350: ca36 41be e936 0bbe 288c e1bc 8152 03bd
00000360: 3858 c0bd 277f c3bd d8cc 15be f8bc 7dba
00000370: 996b dd3c dce9 a7bc e4fa b43c 5cbf 8cbd
00000380: bf66 16be e61d 00be 0c3d 39bd a6e6 f3bb
00000390: e921 06be 31cb 53bd 74d4 88bd 119f 23be
000003a0: 0b7d 973c ed95 2abd 84a2 8ebd 8df1 e13c
000003b0: f394 ac3b a698 73bb 97eb ccbd 706e e4bd
000003c0: 1afd ac3c 4984 9fbb 04de bebd a3f5 fa3c
000003d0: e476 f3bd a82d 8fbd fca0 12be 3208 dcbd
000003e0: 3b2c f93c 8cad d0bd 8646 fcbd 072f 523d
000003f0: 7883 47be edb0 d7bc f245 7e3d cbcb 34be

net.2.bias f4 [32]
0.18300146 -0.038866527 0.20523115 -0.03350733 -0.04763285 0.24570884 0.1355185 -0.15513794
-0.11565792 -0.16103894 0.09943637 0.13798545 -0.16261896 0.045088362 0.28182796 -0.003057985
0.20011793 -0.076656684 -0.014993691 0.154478 0.06565085 -0.0056326245 -0.024462584 0.26762697
0.07665281 -0.1121843 -0.039798092 -0.41295508 0.20325428 0.12086096 0.3697481 0.31654832
00000000: bc64 3b3e 8232 1fbd 1d28 523e fb3e 09bd
00000010: aa1a 43bd 199b 7b3e 5dc5 0a3e 7bdc 1ebe
00000020: 0fde ecbd 64e7 24be 4ca5 cb3d 0f4c 0d3e
00000030: 9685 26be 93ae 383d c14b 903e 7a68 48bb
00000040: b7eb 4c3e 2efe 9cbd 19a8 75bc 7b2f 1e3e
00000050: f473 863d e191 b8bb c265 c8bc 6706 893e
00000060: 26fc 9c3d e2c0 e5bd 5303 23bd d96e d3be
00000070: e421 503e f385 f73d 9f4f bd3e 9f12 a23e

net.4.weight f4 [1, 32]
0.6836234 -0.05013976 -0.13025312 -0.07822506 -0.03833867 -0.14032398 -0.073458806 0.03582597
-0.045200676 0.046216622 -0.055081706 -0.107953705 0.052780986 -0.029679641 -0.17326722 0.082561836
-0.14840509 -0.3605351 0.09107551 -0.025287233 0.44514328 -0.012842646 0.03431068 -0.28976372
-0.120758444 -0.0356931 0.019892303 0.22556768 -0.035484176 -0.12344229 -0.23927875 -0.21593395
00000000: f101 2f3f 595f 4dbd 1361 05be 7634 a0bd
00000010: 0209 1dbd 17b1 0fbe 9271 96bd 41be 123d
00000020: 5824 39bd a44d 3d3d 5b9d 61bd d516 ddbd
00000030: e030 583d b822 f3bc f66c 31be 2e16 a93d
00000040: 81f7 17be 0e98 b8be cc85 ba3d 2c27 cfbc
00000050: d2e9 e33e f669 52bc 5b89 0c3d e95b 94be
00000060: 3450 f7bd ee32 12bd 2ff5 a23c 37fb 663e
00000070: db57 11bd 50cf fcbd 7d05 75be ca1d 5dbe
